experiment_results/embeddings_from_png_model.npz (npz, 509510 bytes, 1 tensors)

embeddings f4 [1928, 64]
00000000: f6ff 0cc0 f6d9 d93e 3823 17be e34c b9bf
00000010: b1f6 893f 73fa aabe bea3 1c3f e82b 0540
00000020: bbc0 bdbe 0979 9b3e c8a2 b43e c25b 913e
00000030: 6751 9abf 1630 c33f 245a 313e f7af f93f
00000040: 783b 813d 746b 823f 0b1f 873f 648f a13f
00000050: 3a3a ad3f 3488 0ebd d4d9 3e3f 228c 47bf
00000060: 3871 e5bf 3c37 cebf eec5 e53e c7ed de3f
00000070: 9d04 bebf 20cd bbbf 2d2e 853f 087b 083d
00000080: 8952 f3be 10fe c53e ac21 9dbf c8e8 d43e
00000090: 70fb b33e 36cc bebe 458d 8e3f b065 ba3e
000000a0: 6f5e 68be 38db 97bf 840b f83e 48df e5bf
000000b0: 6521 2b3f 4c37 643f 1aeb bdbf 13fd 03bf
000000c0: 9a14 1bbf 4049 20bd ceec e83f 56f4 48bd
000000d0: 8eca 753e c6aa 16be 9466 523d de8a aa3e
000000e0: e295 8dbf 724f fb3f 7634 3f3e 1fc0 40bf
000000f0: d011 de3f baba 1c3f 0459 9dbd 966a b13f
00000100: b672 65c0 677c 323f 4cd7 89bd 74be 1ac0
00000110: f5ce bd3f 5018 55bf 9e85 773f 3e98 5740
00000120: f5cf 2bbf 9455 073f 4d85 ad3e 823b 1b3f
00000130: fda7 02c0 3621 1840 5810 0b3f 57d4 4c40
00000140: 50ec e3bd 8166 db3f ab05 df3f f1ee 1a40
00000150: 024e 2440 a056 91bc 67b7 9a3f 838a 9ebf
00000160: a51e 3ec0 4621 24c0 ea6e 223f dcac 3c40
00000170: a446 13c0 c89c 11c0 0eb9 de3f d6d0 6f3e
00000180: ef8f 12bf 8e97 393f 1267 efbf 3e4d 293f
00000190: d892 0e3f c18b 02bf d112 ec3f c98f 3d3f
000001a0: d4cf a4be 38e0 04c0 1c38 403f 88c6 3ec0
000001b0: 5ff5 8b3f 4ea6 cf3f 1fb9 14c0 3893 44bf
000001c0: 1b78 5ebf f305 92bd 82ea 2f40 c173 60bd
000001d0: 2278 8f3e 24cd 2bbe 000a 1d3a 307b 143f
000001e0: 9064 d3bf a4a4 5040 6567 b63e bcd6 a4bf
000001f0: 2f99 2440 7a06 763f 1c65 3abe bfd7 0940
00000200: 4415 d4c0 f9cb 2f3f 2e4b 21be c2cb 3ac0
00000210: 2155 5e40 20d1 a0bf 726a d93f c7bf 9840
00000220: 2adb aebd 70ab 4f3f 21dd 783f 9166 683f
00000230: 4356 76c0 74f1 8940 64bc 283f c49f ba40
00000240: c4b2 d2bd a6a0 3940 96eb 1740 0334 6840
00000250: f5ce 3e40 e0fe 3f3c fce0 c23f 0dfc 09c0
00000260: d5b4 90c0 9d9a 9bc0 a211 d93f 4bb7 6040
00000270: 285e 87c0 0a84 67c0 6ca3 3f40 ccfc f6bc
00000280: ed22 9dbf 9b99 3d3e 051b 4cc0 3614 983f
00000290: d17d 263f d44c fabf c7a9 5940 6e8c c13f
000002a0: d0fe d3bd b73c 42c0 fc54 df3f 72a1 80c0
000002b0: f4b5 0c40 f656 fc3f 285a 8cc0 8b43 cabf
000002c0: 596f c9bf e0f5 3dbe 208b aa40 fc32 07bd
000002d0: 5444 613f a029 72bd dc06 d8bd d62d 8d3f
000002e0: 77b0 03c0 0627 9c40 c1ea bf3e 3355 05c0
000002f0: 967d a540 c46d aa3f 9b0e 35bf 9401 7e40
00000300: e2bd 44c0 7198 ba3e 7689 3cbd af00 bbbf
00000310: 6803 d23f ff45 02bf 35cb 473f 0ebd 1340
00000320: 14da d0bd b9a9 c93e 29b6 e13e 24d4 ee3e
00000330: 56b1 e6bf f1fd 0040 9425 9d3e b33c 3040
00000340: 40f1 d3bb e27a ab3f 973e 913f 56f2 e53f
00000350: 57c5 c03f 18e8 07bd bcd7 393f 4fcb 85bf
00000360: db8a 0bc0 d402 16c0 51f3 523f e504 e83f
00000370: 18bf 02c0 86af e5bf 7f4d bb3f d69c 183d
00000380: cdcc 1cbf 3e34 f23d bef6 cabf 4f3f f43e
00000390: f06a bb3e 4a07 6dbf aafa d23f 2669 413f
000003a0: da3e 60be 68f2 b8bf 06f2 693f 29d5 fdbf
000003b0: bc9d 873f 0cd2 853f fd9b 07c0 978f 46bf
000003c0: 1233 45bf 4b50 cabc 5ece 2440 b4fb c8bc
000003d0: 7f6d a43e 2ccb 9ebd ec03 27bd ac89 033f
000003e0: 8488 7dbf 363b 1640 d1a7 463e d533 82bf
000003f0: 7b6b 1840 15ee 333f 0831 92be 4839 ec3f
-2.2031226 0.42549103 -0.14759529 -1.4476589 1.0778409 -0.33394203 0.6118735 2.0808048
-0.37061104 0.3036578 0.35280442 0.28390318 -1.2056092 1.524905 0.17319542 1.9506825
0.06310171 1.0189042 1.0556349 1.2621884 1.3533394 -0.034797862 0.7455113 -0.779482
-1.7925177 -1.6110606 0.4487757 1.7416314 -1.4845158 -1.4671974 1.0404717 0.033320457
-0.47523907 0.38670397 -1.2275901 0.41583848 0.3515277 -0.37265176 1.1136862 0.36405706
-0.22692274 -1.1863775 0.48446286 -1.7958765 0.6684783 0.89146876 -1.4837372 -0.51558036
-0.6057831 -0.039132357 1.8197267 -0.049061142 0.2400305 -0.14713582 0.051367357 0.33309072
-1.1061366 1.963362 0.18672356 -0.75293154 1.7349186 0.6122242 -0.07682994 1.3860652
-3.5851264 0.6972107 -0.06730518 -2.4178743 1.4828783 -0.8324022 0.9668826 3.3686671
-0.6711419 0.52864957 0.33890763 0.60637677 -2.0415032 2.377027 0.54321814 3.2004602
-0.111290574 1.7140657 1.7423605 2.4208338 2.5672612 -0.017741501 1.208722 -1.238602
-2.9706204 -2.5645308 0.6345049 2.9480505 -2.3011866 -2.2751942 1.7400224 0.23419508
-0.57250875 0.7249688 -1.870333 0.6613349 0.55692816 -0.509945 1.8443242 0.74047524
-0.3218981 -2.0761852 0.75085616 -2.9808674 1.0934256 1.6222627 -2.323799 -0.7678714
-0.86902016 -0.07130041 2.7486882 -0.05479789 0.28021342 -0.16777474 0.0005990565 0.5800047
-1.6515064 3.2600489 0.3562576 -1.2878032 2.5718496 0.9610363 -0.18202633 2.153793
-6.627596 0.6867061 -0.15751335 -2.9186864 3.4739459 -1.256382 1.698561 4.7734103
-0.08537896 0.8112097 0.97212416 0.90781504 -3.849015 4.3107243 0.6591246 5.8320026
-0.10288003 2.9004302 2.373754 3.6281745 2.9813817 0.011718482 1.522491 -2.156009
-4.522074 -4.8626237 1.6958506 3.5111873 -4.2302437 -3.617434 2.9943495 -0.03014984
-1.2276284 0.18515627 -3.1891491 1.1881168 0.6503573 -1.9554696 3.4009874 1.5120981
-0.10351336 -3.0349557 1.744781 -4.0197077 2.1986055 1.9714038 -4.3860054 -1.5801862
-1.5737106 -0.18550825 5.329483 -0.033007607 0.87994885 -0.059121728 -0.10548183 1.1029613
-2.0576456 4.8797636 0.3748379 -2.0833251 5.1715803 1.3314748 -0.7072541 3.9688463
-3.0740895 0.3644443 -0.04602953 -1.4609584 1.640729 -0.50888056 0.78044444 2.308414
-0.10197845 0.393873 0.4408429 0.46646225 -1.8022869 2.0154994 0.30692732 2.7537048
-0.006467968 1.3396876 1.1347226 1.796458 1.5060223 -0.033180326 0.7259481 -1.045267
-2.18035 -2.3439226 0.8240252 1.8126494 -2.0429134 -1.794419 1.4633025 0.037258945
-0.6125 0.11826371 -1.585655 0.4770455 0.36605024 -0.9258925 1.6482747 0.7555107
-0.21898976 -1.4448977 0.91384923 -1.9830676 1.0595012 1.0454726 -2.1188958 -0.7756285
-0.7703105 -0.02469649 2.5750957 -0.024534084 0.3211479 -0.07753596 -0.040775225 0.51381946
-0.9903643 2.347364 0.19399954 -1.0172068 2.38156 0.7028516 -0.28553033 1.8454981
