experiment_results/embeddings_from_png_model.npz (npz, 509510 bytes, 1 tensors)

embeddings f4 [1928, 64]
000000 f5 ed 02 be 7c e9 8a 3f 95 06 b2 bf f6 91 d3 3d
       -0.12786086 1.0852504 -1.3908259 0.10330574
000010 b6 b3 b5 3f 02 4c c2 3d 3f 1b 43 3e 6f 3d 10 40
       1.4195468 0.094871536 0.19053362 2.2537496
000020 e5 c3 2a 40 94 36 39 bf 76 58 ad bf bc c1 37 3f
       2.6682065 -0.72348905 -1.3542621 0.7177999
000030 9a 65 8f bf 51 91 d1 bf 02 bf d4 3d 6c 96 02 c0
       -1.1202881 -1.6372472 0.10387994 -2.040431
000040 91 17 74 be 9c ab 0b be 52 1c 77 bf 27 29 6a 3f
       -0.23837115 -0.13639683 -0.9652759 0.91469043
000050 d7 cb 85 3e 9a fb 95 3f 26 02 01 3e be b0 b2 3f
       0.2613208 1.1717408 0.12598476 1.3960187
000060 92 24 e8 3f 79 27 58 3f 32 8d 47 c0 cd f4 02 c0
       1.813616 0.8443523 -3.1179929 -2.0461915
000070 80 4d e9 bf fe f7 0f 40 74 27 2b 40 76 d3 05 3e
       -1.8226776 2.2495112 2.674283 0.13068947
000080 ad eb ef bf 97 a3 ae bf 48 d7 2a 40 1e 42 d8 3f
       -1.8743798 -1.3643674 2.6693897 1.6895177
000090 67 51 56 bf ef ab 9f be 67 33 a4 bf 87 8b d6 bd
       -0.8371796 -0.31185862 -1.2828187 -0.104758315
0000a0 3d f1 7f bf 54 87 10 c0 28 e4 e0 3f d4 92 e3 bf
       -0.99977475 -2.2582598 1.7569628 -1.7779183
0000b0 84 0e 4d 3e 55 5f 49 be 22 d4 07 40 e7 2b 86 3f
       0.20025069 -0.19665273 2.1223226 1.0482148
0000c0 c8 03 4b be 18 d0 0a c0 87 16 a3 be 4a 00 06 bf
       -0.19825661 -2.168951 -0.31853124 -0.5234419
0000d0 96 f1 5d bf 7e ee 35 c0 99 a8 ec be 0c 9b aa 3c
       -0.86696756 -2.8426814 -0.4622238 0.020825885
0000e0 4c 1c ec 3f ba 8a 35 40 29 f0 00 40 91 5e 6e bf
       1.8446136 2.8365922 2.0146582 -0.93113047
0000f0 90 c2 84 3f b4 8c cc bf d0 8b be be 7a d9 a1 3e
       1.0371876 -1.5980439 -0.37216043 0.31611234
000100 12 a3 61 bf 5f 97 df 3f c8 93 e5 bf 00 96 82 bd
       -0.8813945 1.746807 -1.7935724 -0.063762665
000110 55 2b 98 3f 78 ab 27 3d fc 65 ab 3e 64 f5 39 40
       1.1888224 0.04093501 0.33476245 2.9056025
000120 2a 7c 55 40 ee 4a ba bf bc 29 19 c0 7c e3 1d 3f
       3.3357034 -1.4554117 -2.3931723 0.6167524
000130 c5 2d 79 bf 70 d0 ed bf 86 a0 d7 3d 65 42 3a c0
       -0.97335464 -1.8579235 0.10528664 -2.9103024
000140 3e ea a8 be 0a cc ea 3e 00 ee 55 bf c6 0c 05 40
       -0.32991213 0.45858794 -0.83566284 2.0789046
000150 4a 5e c3 3e ce c1 df 3f 80 b3 9c ba 8f 32 f1 3f
       0.38157874 1.748102 -0.0011955351 1.8843554
000160 20 63 13 40 2d b1 b3 3f 5e 8b 75 c0 54 45 22 c0
       2.302925 1.4038445 -3.8366313 -2.5354815
000170 56 e0 1a c0 0b b8 43 40 1a 6d 52 40 e2 be 0a 3e
       -2.4199424 3.058108 3.287909 0.13549379
000180 08 c6 00 c0 2a 02 be bf 76 5e 5c 40 bb 57 ec 3f
       -2.0120869 -1.484441 3.4432654 1.8464273
000190 84 ee a8 bf 57 e8 3d bf ef d1 db bf 93 df 32 be
       -1.3197789 -0.7418265 -1.7173442 -0.174681
0001a0 d4 f7 b2 bf bc f4 27 c0 51 40 eb 3f 3a 83 0b c0
       -1.3981881 -2.6243124 1.8379003 -2.1798844
0001b0 d6 fb 0e 3e 99 8e ec be bd 06 39 40 bd 9b d3 3f
       0.13963255 -0.46202543 2.8910363 1.6531903
0001c0 6d bc e6 be f6 23 29 c0 2a be ad be 4e bc 79 bf
       -0.45065632 -2.64282 -0.33934146 -0.97552955
0001d0 b9 6e c1 bf 12 38 77 c0 38 59 a2 bf f6 18 20 be
       -1.5111915 -3.8627973 -1.2683477 -0.15634522
0001e0 a0 a0 21 40 6c 50 6a 40 8c 54 1e 40 98 1f f4 be
       2.5254288 3.6611586 2.4739103 -0.47680354
0001f0 d0 f6 f0 3f 03 8e ce bf 73 bf e2 be 92 85 db 3e
       1.8825321 -1.6137089 -0.4428669 0.42875344
000200 52 8b ed bd 4c 1f 9b 3f 34 41 dd bf b9 9c b4 3e
       -0.11598839 1.2118926 -1.7285523 0.3527582
000210 89 bc ff 3f 44 0a 09 3e 25 b6 22 3e 3e 2d 41 40
       1.9979411 0.13382822 0.15889795 3.0183864
000220 56 16 67 40 dd fd 25 bf 9a df e6 bf 20 86 70 3f
       3.6107383 -0.6484049 -1.8036988 0.9395466
000230 dc 57 c6 bf 7c cd 16 c0 4d 77 1d 3c a1 67 27 c0
       -1.5495563 -2.3562918 0.009610963 -2.6157
000240 e4 77 e2 be 01 c6 ae be e6 42 b1 bf e1 eb 90 3f
       -0.44232094 -0.3413544 -1.3848541 1.1321985
000250 10 c5 c1 3e 06 b9 b5 3f 3b a8 37 3e f8 d7 f6 3f
       0.3784566 1.419709 0.17935269 1.9284658
000260 98 61 18 40 30 98 79 3f 00 5b 86 c0 58 2b 26 c0
       2.3809566 0.97497845 -4.1986084 -2.5963955
000270 be ca 1e c0 ed e4 35 40 fe 80 66 40 08 cf ab 3e
       -2.4811244 2.8420975 3.601623 0.3355639
000280 82 eb 28 c0 a2 b6 e6 bf d8 81 61 40 5f 0e 0a 40
       -2.6393743 -1.8024485 3.52355 2.1571271
000290 d0 96 83 bf be c3 ab be da 39 ca bf c2 42 46 be
       -1.0280399 -0.33547777 -1.5798905 -0.19361404
0002a0 20 94 ae bf ca b4 3d c0 6f 95 11 40 ff f4 16 c0
       -1.3638954 -2.9641595 2.2747457 -2.3587034
0002b0 54 56 98 3e 06 31 55 be 12 76 37 40 09 89 aa 3f
       0.29753363 -0.20819482 2.8665814 1.332307
0002c0 51 16 45 be 7e 6e 39 c0 58 ac dd be 60 77 4d bf
       -0.19246794 -2.897369 -0.4329555 -0.80260277
0002d0 fe 2a 8e bf cc 3a 63 c0 eb e2 fc be 94 cf 2c 3d
       -1.110687 -3.5504637 -0.49391875 0.04219015
0002e0 a5 86 1d 40 06 a3 77 40 22 76 31 40 fe 8d b9 bf
       2.461343 3.8693252 2.7728353 -1.4496458
0002f0 1c b1 ac 3f c7 c4 0b c0 92 9b 07 bf c8 88 c4 3e
       1.349155 -2.1838853 -0.52971756 0.38385606
000300 89 dd 25 3e bf 74 fa 3f c2 32 26 c0 1b b0 9c 3e
       0.1619779 1.9566878 -2.596848 0.30603108
000310 3e 8a 4d 40 82 3c 2b 3e c4 31 97 3e e7 f6 8c 40
       3.2115626 0.167223 0.29530156 4.4051394
000320 a0 f1 a8 40 b5 6c 5a bf 3a 27 1a c0 fa b3 c9 3f
       5.2794952 -0.85322124 -2.4086442 1.575805
000330 c8 e2 15 c0 39 30 63 c0 50 ae b6 bb a8 6c 6e c0
       -2.3419666 -3.5498183 -0.005574979 -3.7253819
000340 da f1 11 bf 0a d3 3b bf cd cb 12 c0 70 80 a1 3f
       -0.5700966 -0.73368895 -2.293689 1.2617321
000350 e4 d4 db 3e 52 0d fe 3f 3f 9b 65 3e 1e fb 31 40
       0.4293586 1.9847815 0.22422503 2.780952
000360 af f4 69 40 36 4c b4 3f a0 7a c6 c0 c0 1a 82 c0
       3.6555593 1.4085758 -6.202469 -4.0657654
000370 e1 84 61 c0 e0 e0 89 40 9a 6f a9 40 51 88 f9 3e
       -3.5237353 4.3087006 5.294873 0.48736814
000380 d4 65 87 c0 48 e8 42 c0 a4 f0 a3 40 a2 d7 5b 40
       -4.23118 -3.0454273 5.123125 3.4350362
000390 e6 6b b3 bf 74 1b f2 be 2e 29 1b c0 a9 50 92 be
       -1.4017303 -0.4728657 -2.4243884 -0.28577164
0003a0 2a d1 f9 bf b7 3e 91 c0 fe 1a 5b 40 f4 12 59 c0
       -1.9516957 -4.5389056 3.4235225 -3.3917818
0003b0 cf 7c 28 3e e7 45 80 be 0a be 7f 40 f4 6f 00 40
       0.1645386 -0.2505333 3.995974 2.006833
0003c0 78 cc 67 bd 08 d3 86 c0 9b 8b 28 bf 75 4f 62 bf
       -0.05659148 -4.2132607 -0.6583802 -0.8840249
0003d0 9b e3 94 bf 24 6f a8 c0 8a 04 f6 be 00 ea 90 3b
       -1.163196 -5.263567 -0.48050338 0.004422426
0003e0 5a 0b 67 40 56 f1 af 40 9f 72 7b 40 d2 d0 0d c0
       3.6100678 5.49821 3.928871 -2.2158704
0003f0 d2 1e f0 3f 7d 4c 53 c0 8c 7a 00 bf 2e 15 e2 3e
       1.8759406 -3.3015435 -0.5018699 0.44156784
