experiment_results/embeddings_from_deeplake_model.npz (npz, 509510 bytes, 1 tensors)

embeddings f4 [1928, 64]
-3.3982744 0.7277527 -0.819297 4.1683073 -1.3255674 4.268757 -1.5590425 2.7283306
-5.971204 -0.98687875 3.3201907 0.17873211 0.83863294 -2.1852415 3.9770246 3.7860272
-5.3957996 -0.058126204 -1.1244402 -6.394464 -6.107155 -1.786917 -0.016625997 -3.4925694
0.7400868 4.374252 -4.836258 0.13899514 -1.3042476 -1.5059597 -0.08364054 0.5775151
0.838851 3.7474782 -5.026329 -0.7101584 -0.23783682 3.2974558 2.4592848 -3.3155036
-3.3660042 0.622872 2.1724665 -0.41599178 -3.310443 -5.4644575 -0.36216077 -4.322696
-1.445441 -1.0272177 0.7292814 -0.016490798 3.0425775 -0.49024513 -1.1458043 1.4377592
2.4665933 -4.9190736 -0.0075193346 0.6995564 -0.089849025 -1.5617676 4.135056 -0.28178504
-3.5297923 0.72117174 -0.6942922 4.2601748 -1.4034122 4.348659 -1.3867382 2.7234552
-5.9230413 -0.8163409 3.4205585 0.13143972 1.0588255 -2.1602926 3.7819686 3.6347418
-5.2547417 -0.057822417 -0.82100904 -6.3063307 -5.832659 -1.9054998 -0.016669206 -3.370063
0.9714894 4.262925 -4.713585 0.09190497 -1.5088704 -1.195134 -0.07074377 0.72472215
0.7183379 3.3897414 -4.8918095 -0.6026281 -0.13757458 3.1924317 2.466119 -3.3624156
-3.2101889 0.81429213 1.9703007 -0.3798679 -3.217378 -5.266294 -0.28046006 -4.125727
-1.2810841 -1.161993 0.8866559 -0.09107475 3.155917 -0.7397125 -1.320925 1.3391232
2.0832314 -4.587017 0.17919159 0.649753 -0.086916834 -1.6273713 3.8033836 -0.26305842
-2.5637794 0.48031133 -0.5418739 3.0959873 -0.786078 3.4048753 -1.2825211 2.052366
-4.7905846 -0.69271755 2.616033 0.114302844 0.58248526 -1.5217733 3.3336415 2.982171
-4.410743 0.11688935 -0.8418542 -4.966399 -4.9062777 -1.4743912 0.004358873 -2.964582
0.44287136 3.4085138 -3.7517807 0.010459155 -0.8120497 -1.4255385 -0.06620525 0.32230824
0.5254563 3.1211464 -4.0937395 -0.47391483 0.020458374 2.8292658 1.8467937 -2.54813
-2.7496645 0.5463365 1.8680358 -0.30540276 -2.5957942 -4.2694607 -0.07866791 -3.3618548
-1.1901034 -0.8364986 0.53193706 0.012195941 2.4150972 -0.3527674 -0.86941034 1.0218306
2.1766818 -3.9370606 -0.12429413 0.4439679 -0.018505171 -1.1881797 3.2994819 -0.1703647
-3.596631 0.7666222 -0.6870317 4.352921 -1.3460433 4.5431304 -1.4514353 2.7545838
-6.1609197 -0.7703942 3.551973 0.16833359 1.0566796 -2.1264212 3.9200544 3.7386231
-5.474403 0.07919222 -0.7945899 -6.4371643 -6.0313277 -2.0593982 -0.044142615 -3.4747772
0.9826873 4.3377576 -4.8685713 0.023418516 -1.5723889 -1.2419174 -0.10138516 0.6788152
0.66037625 3.454445 -5.027523 -0.56617105 -0.11230958 3.430231 2.5106854 -3.450364
-3.353964 0.87027115 2.042899 -0.32052246 -3.277041 -5.3440795 -0.11773682 -4.245913
-1.3356115 -1.2525516 0.88254136 -0.10210066 3.2295842 -0.8051081 -1.3833356 1.3434718
2.1999705 -4.7503705 0.1657629 0.58023113 -0.058032796 -1.6889163 3.9188573 -0.21032274
00000000: 547d 59c0 004e 3a3f 73bd 51bf c662 8540
00000010: 31ac a9bf a899 8840 b48e c7bf f89c 2e40
00000020: 1a14 bfc0 16a4 7cbf 017e 5440 8d05 373e
00000030: a6b0 563f ffda 0bc0 9287 7e40 454e 7240
00000040: 64aa acc0 be15 6ebd a8ed 8fbf 739f ccc0
00000050: d06d c3c0 b2b9 e4bf 3e33 88bc 4286 5fc0
00000060: 5476 3d3f dff9 8b40 a0c2 9ac0 be54 0e3e
00000070: 96f1 a6bf 4ac3 c0bf bb4b abbd 08d8 133f
00000080: f0be 563f afd6 6f40 b0d7 a0c0 f1cc 35bf
00000090: 7f8b 73be 8409 5340 ec64 1d40 3631 54c0
000000a0: 9d6c 57c0 8a74 1f3f b109 0b40 e0fc d4be
000000b0: 4cde 53c0 d6dc aec0 236d b9be 8753 8ac0
000000c0: 3604 b9bf df7b 83bf 30b2 3a3f b617 87bc
000000d0: 97b9 4240 6901 fbbe b7a9 92bf 7e08 b83f
000000e0: aadc 1d40 0d69 9dc0 c064 f6bb 2116 333f
000000f0: c402 b8bd 00e8 c7bf 6152 8440 2146 90be
00000100: 1ee8 61c0 b69e 383f 22bd 31bf 5a53 8840
00000110: 03a3 b3bf 3728 8b40 a380 b1bf 174d 2e40
00000120: 8e89 bdc0 b8fb 50bf 6eea 5a40 2298 063e
00000130: 9887 873f 3c42 0ac0 c60b 7240 9c9f 6840
00000140: d826 a8c0 33d7 6cbd a62d 52bf 76cd c9c0
00000150: 24a5 bac0 6be7 f3bf dc8d 88bc 1daf 57c0
00000160: 88b3 783f e269 8840 b0d5 96c0 ac38 bc3d
00000170: aa22 c1bf 27fa 98bf 1ce2 90bd 6487 393f
00000180: fee4 373f 86f1 5840 b489 9cc0 d645 1abf
00000190: 5ae0 0cbe cd50 4c40 e5d4 1d40 d131 57c0
000001a0: bc73 4dc0 7375 503f d032 fc3f 0c7e c2be
000001b0: 85e9 4dc0 7b85 a8c0 7698 8fbe f505 84c0
000001c0: 90fa a3bf 30bc 94bf e2fb 623f 6685 babd
000001d0: 8bfa 4940 cc5d 3dbf 1214 a9bf 6468 ab3f
000001e0: aa53 0540 d8c8 92c0 007e 373e 3656 263f
000001f0: 7401 b2bd b44d d0bf a36a 7340 98af 86be
00000200: f614 24c0 5eeb f53e 3fb8 0abf a824 4640
00000210: 683c 49bf 7ae9 5940 a729 a4bf f759 0340
00000220: 784c 99c0 f055 31bf 166d 2740 9c17 ea3d
00000230: c11d 153f 78c9 c2bf 625a 5540 e4db 3e40
00000240: cf24 8dc0 af63 ef3d c283 57bf beec 9ec0
00000250: 3a00 9dc0 dab8 bcbf e0d4 8e3b b6bb 3dc0
00000260: 09c0 e23e 1725 5a40 2d1d 70c0 e05c 2b3c
00000270: 7de2 4fbf 0c78 b6bf 9e96 87bd 9605 a53e
00000280: 4e84 063f ddc0 4740 eaff 82c0 f7a4 f2be
00000290: 5298 a73c b112 3540 bc63 ec3f 9014 23c0
000002a0: 81fa 2fc0 b5dc 0b3f cc1b ef3f c05d 9cbe
000002b0: 7e21 26c0 6c9f 88c0 a41c a1bd a128 57c0
000002c0: 4f55 98bf c624 56bf 072d 083f 7cd1 473c
000002d0: f490 1a40 ee9d b4be ad91 5ebf 58cb 823f
000002e0: c14e 0b40 cdf8 7bc0 ec8d febd c34f e33e
000002f0: 2898 97bc 4616 98bf b62a 5340 1574 2ebe
00000300: 342f 66c0 5a41 443f 4fe1 2fbf 214b 8b40
00000310: 264b acbf 5361 9140 a2c8 b9bf 1a4b 3040
00000320: 4126 c5c0 8e38 45bf 8753 6340 a45f 2c3e
00000330: 4741 873f 4917 08c0 2ce2 7a40 9a45 6f40
00000340: 4f2e afc0 882f a23d 3e6a 4bbf 40fd cdc0
00000350: a300 c1c0 2ecd 03c0 e3ce 34bd c062 5ec0
00000360: 6591 7b3f e9ce 8a40 56cb 9bc0 30d8 bf3c
00000370: 0a44 c9bf 26f7 9ebf 06a3 cfbd d5c6 2d3f
00000380: 6b0e 293f a015 5d40 78e1 a0c0 96f0 10bf
00000390: 9102 e6bd e888 5b40 12af 2040 c4d2 5cc0
000003a0: 59a7 56c0 17ca 5e3f dbbe 0240 851b a4be
000003b0: 0abb 51c0 b302 abc0 0020 f1bd 85de 87c0
000003c0: 51f5 aabf 9c53 a0bf 3bee 613f 271a d1bd
000003d0: 82b1 4e40 901b 4ebf 2411 b1bf e2f6 ab3f
000003e0: 51cc 0c40 0903 98c0 c0bd 293e 078a 143f
000003f0: ccb3 6dbd 692e d8bf 8fce 7a40 d85e 57be
