experiment_results/embeddings_from_deeplake_model.npz (npz, 509510 bytes, 1 tensors)

embeddings f4 [1928, 64]
0	0x4080b1b3	4.021692
1	0x3f2b778d	0.66979295
2	0x3f4b7c96	0.7948698
3	0xbf89b064	-1.0756955
4	0xc0815c3d	-4.0425096
5	0xc073a0c3	-3.806687
6	0x3f0a247d	0.53961927
7	0xbc6596c0	-0.014012992
8	0xbfc12eb3	-1.5092376
9	0xbfb2ce9e	-1.3969305
10	0x4050fb88	3.2653522
11	0xbf0d256a	-0.55135214
12	0x3e62aa1f	0.22135209
13	0x3ebd17ce	0.36932224
14	0x3f8f8f85	1.1215674
15	0xc0999608	-4.7995644
16	0x401fc8c5	2.496629
17	0xbe8e7a48	-0.27827668
18	0xbe181f97	-0.148558
19	0xbfbe5d8f	-1.4872302
20	0xc0856a75	-4.1692452
21	0x3d9afb48	0.07567459
22	0x3d70cd78	0.0587897
23	0xbfa0c521	-1.2560159
24	0x3b29e300	0.0025922656
25	0xc054ae1e	-3.3231273
26	0x404e0d24	3.219552
27	0xc039b7e4	-2.9018488
28	0x3e0c25f4	0.13686353
29	0x407b83e7	3.9299257
30	0x400652cd	2.0988038
31	0xc08852ae	-4.2600927
32	0x4051593c	3.2710714
33	0x3eb7e0ee	0.35913795
34	0x40444b4c	3.0670958
35	0xbe8dc601	-0.27690127
36	0xbf90478f	-1.1271838
37	0x400e3ba0	2.2223892
38	0xbf26f1e5	-0.6521285
39	0x403a7a5a	2.9137177
40	0xbf53c0d4	-0.8271611
41	0x3ff06c60	1.8783073
42	0xc0644519	-3.5667174
43	0x3eb1b6a0	0.34709644
44	0xbf713a3a	-0.9422947
45	0x3fdfbaa6	1.7478836
46	0xbf4cb56d	-0.79964334
47	0xc01efa90	-2.4840431
48	0xbee83003	-0.4534913
49	0x3ebe9cf3	0.37229118
50	0x3f7829fa	0.9693905
51	0xc067766a	-3.6166024
52	0xbf4e56f0	-0.80601406
53	0xbf44135a	-0.7659203
54	0x3ff68ca2	1.9261668
55	0x3f127b82	0.5721971
56	0xbfd55fca	-1.6669858
57	0x40516da9	3.2723181
58	0x4096f02e	4.716819
59	0xbdde40f4	-0.108522326
60	0xbf5384d5	-0.8262456
61	0xbf20832c	-0.6270015
62	0x40a6920a	5.205327
63	0xc03feb25	-2.998727
64	0x40b2a10c	5.582159
65	0x3f60549f	0.8762912
66	0x3f7764e4	0.9663832
67	0xbfbb90e7	-1.4653596
68	0xc0a9eff8	-5.310543
69	0xc0a3b38c	-5.1156673
70	0x3f1b4280	0.60648346
71	0x3dd1ddaf	0.10247361
72	0xbfef1350	-1.8677769
73	0xbff71498	-1.930316
74	0x408dcac4	4.4310017
75	0xbf1feecb	-0.62473744
76	0x3ebae44a	0.36502296
77	0x3e87e4b4	0.26541674
78	0x3f9d5712	1.2292197
79	0xc0d0a9dc	-6.520735
80	0x4047284a	3.111834
81	0x3d9685bc	0.073497266
82	0xbde7fa16	-0.11326997
83	0xc006ecfc	-2.1082144
84	0xc0acf8b3	-5.405359
85	0x3dc22ab0	0.09480798
86	0x3dc8bb00	0.098012924
87	0xbfd37f2a	-1.6523182
88	0x3c5f1c40	0.013617575
89	0xc0877bb8	-4.2338524
90	0x4083aa31	4.1145253
91	0xc078e30e	-3.8888583
92	0x3df1e440	0.11811113
93	0x40ac496c	5.3839626
94	0x40290d44	2.6414347
95	0xc0bd9f81	-5.9257207
96	0x4086ecdd	4.216414
97	0x3ecc665a	0.39921838
98	0x408a9af3	4.3314147
99	0xbe996382	-0.2995873
100	0xbfe2b05e	-1.7710073
101	0x4044f348	3.0773487
102	0xbf81e7a4	-1.0148816
103	0x40671051	3.6103709
104	0xbf64580b	-0.8919684
105	0x4023f440	2.5617828
106	0xc0922a0a	-4.5676317
107	0x3f18cc0d	0.59686357
108	0xbf91ab8f	-1.138048
109	0x4007ee86	2.1239333
110	0xbf6f055e	-0.93367565
111	0xc04f1a80	-3.2359924
112	0xbeef8901	-0.46784213
113	0x3eafcc32	0.34335476
114	0x3f903f74	1.1269364
115	0xc09885a0	-4.7663116
116	0xbf884732	-1.0646727
117	0xbf8cf375	-1.1011797
118	0x402838cc	2.6284666
119	0x3f0b7dad	0.5448864
120	0xc01507ad	-2.3285935
121	0x40881f38	4.253811
122	0x40ca2af2	6.3177423
123	0xbe8a4b9e	-0.27010816
124	0xbf8eb712	-1.1149619
125	0xbf647fff	-0.89257807
126	0x40e111f6	7.0334425
127	0xc071ba65	-3.7770016
128	0x40931fde	4.59764
129	0x3f3a41c2	0.7275659
130	0x3f56fae5	0.83976585
131	0xbf9e776e	-1.2380197
132	0xc08f09c6	-4.469943
133	0xc087c24a	-4.242467
134	0x3f02d5ca	0.51107466
135	0x3e0a2232	0.13489607
136	0xbfe0a6e8	-1.7550936
137	0xbfd21825	-1.6413618
138	0x406ed0ee	3.731502
139	0xbf15985b	-0.584356
140	0x3eb20f4e	0.34777302
141	0x3e766ad4	0.24064189
142	0x3f871c8e	1.0555589
143	0xc0b08f07	-5.5174594
144	0x40354645	2.832414
145	0xbca1aa38	-0.019734487
146	0xbe1fdb3d	-0.15610977
147	0xbfefb1dc	-1.8726153
148	0xc094e69a	-4.6531496
149	0x3c9a75a0	0.018854916
150	0x3e228b24	0.1587339
151	0xbfb9fe13	-1.4530662
152	0x3d2afa38	0.041742533
153	0xc064a93f	-3.57283
154	0x4061972e	3.5248523
155	0xc05595b2	-3.3372617
156	0x3dc33bf0	0.095329165
157	0x408de397	4.434032
158	0x401257e8	2.2866154
159	0xc09d70da	-4.920026
160	0x406063f2	3.5061002
161	0x3ec82602	0.39091498
162	0x406d8428	3.7111912
163	0xbe869d62	-0.2629195
164	0xbfb32dfe	-1.3998411
165	0x401fe3da	2.498282
166	0xbf6163cb	-0.88042897
167	0x40456864	3.0844965
168	0xbf48ab7f	-0.7838668
169	0x400bf7a7	2.1869905
170	0xc079541c	-3.8957586
171	0x3edc7557	0.43058273
172	0xbf82d60f	-1.0221575
173	0x3fddcca2	1.7328074
174	0xbf68044e	-0.9063157
175	0xc024f0ed	-2.577205
176	0xbeae4a94	-0.34041274
177	0x3ea25a90	0.3170972
178	0x3f6d766a	0.9275881
179	0xc0822c34	-4.067896
180	0xbf74dcd9	-0.95649487
181	0xbf4f130f	-0.80888456
182	0x401067e9	2.2563422
183	0x3ecccd16	0.40000218
184	0xbfeb25ed	-1.8370949
185	0x40685c42	3.630631
186	0x40ab3f44	5.351473
187	0xbe49f05f	-0.197206
188	0xbf845c08	-1.0340586
189	0xbf376781	-0.7164231
190	0x40be1eac	5.941244
191	0xc04af3be	-3.1711268
192	0x40c05a46	6.0110197
193	0x3f7dbca1	0.9911595
194	0x3f82b6ab	1.0211996
195	0xbffead49	-1.9896632
196	0xc0b61ac9	-5.6907697
197	0xc0b00022	-5.500016
198	0x3eafd480	0.34341812
199	0x3f09db16	0.53849924
200	0xc004d8c0	-2.0757294
201	0xc0209c05	-2.5095227
202	0x40a46cab	5.138265
203	0xbf38d241	-0.7219582
204	0x3f6e896c	0.9317844
205	0xbdc920b0	-0.09820688
206	0x3f6ef936	0.93349016
207	0xc0f3937c	-7.6117535
208	0x4073fe5e	3.8124003
209	0x3f1f1660	0.62143517
210	0xbd60bcae	-0.05486744
211	0xc0319fca	-2.7753778
212	0xc0bea8c6	-5.958102
213	0xbd99eee0	-0.07516265
214	0x3f16943e	0.5881995
215	0xc010a046	-2.2597823
216	0x3c99a780	0.018756628
217	0xc08c8c4e	-4.392127
218	0x4099a13c	4.800932
219	0xc09709ee	-4.719962
220	0xbebd1a55	-0.36934152
221	0x40c023ad	6.004355
222	0x403b4332	2.9259763
223	0xc0d56d33	-6.66958
224	0x408a115f	4.3146205
225	0x3f2365d2	0.6382724
226	0x40ad750c	5.420538
227	0xbf00545d	-0.5012873
228	0xc00832b7	-2.1280954
229	0x40535e8b	3.3026454
230	0xbfb80350	-1.4376011
231	0x406d6b3b	3.7096698
232	0xbf01beae	-0.5068158
233	0x404c4c84	3.1921701
234	0xc09e3b0a	-4.944707
235	0x3eae8d16	0.34092015
236	0xbfb030ee	-1.3764932
237	0x40100ed7	2.2509058
238	0xbf8a03e9	-1.0782443
239	0xc0458116	-3.0860038
240	0xbec0c0e6	-0.3764717
241	0x3d8bfad8	0.06834954
242	0x3f6e3fd2	0.9306613
243	0xc0b18597	-5.5475574
244	0xbfa53ac3	-1.2908558
245	0xbf4cba44	-0.7997172
246	0x4045b8d4	3.089406
247	0x3eb2e20a	0.3493808
248	0xc0104fd8	-2.2548733
249	0x409694c7	4.7056613
250	0x40f0a87a	7.520566
251	0xbe9e5df1	-0.30931047
252	0xbfe3fc5e	-1.7811391
253	0xbf2f6cb0	-0.6852522
254	0x41025ffd	8.148435
255	0xc07c2bd6	-3.9401755
